#map = affine_map<(d0, d1) -> (d0 + d1)>
module attributes {torch.debug_module_name = "ConvPlusReLU"} {
  memref.global "private" constant @__constant_8x2x3x3xf32 : memref<8x2x3x3xf32> = dense<"…">
  memref.global "private" constant @__constant_8xf32 : memref<8xf32> = dense<[0.0519331843, -0.105881959, 0.0670902282, -0.206376091, 0.0167040974, 0.0286557823, 0.117680922, 0.0923966616]>
  memref.global "private" constant @__constant_2x8x3x3xf32 : memref<2x8x3x3xf32> = dense<"…">
  memref.global "private" constant @__constant_2xf32 : memref<2xf32> = dense<[0.00422462821, 0.0159849897]>
  func.func @forward(%arg0: memref<1x2x5x5xf32>) -> memref<f32> {
    %c8 = arith.constant 8 : index
    %c1 = arith.constant 1 : index
    %c3 = arith.constant 3 : index
    %c0 = arith.constant 0 : index
    %c2 = arith.constant 2 : index
    %cst = arith.constant 0.000000e+00 : f32
    %0 = memref.get_global @__constant_2xf32 : memref<2xf32>
    %1 = memref.get_global @__constant_2x8x3x3xf32 : memref<2x8x3x3xf32>
    %2 = memref.get_global @__constant_8xf32 : memref<8xf32>
    %3 = memref.get_global @__constant_8x2x3x3xf32 : memref<8x2x3x3xf32>
    %4 = memref.alloca() : memref<1x8x3x3xf32>
    scf.parallel (%arg1, %arg2, %arg3, %arg4) = (%c0, %c0, %c0, %c0) to (%c1, %c8, %c3, %c3) step (%c1, %c1, %c1, %c1) {
      %14 = memref.load %2[%arg2] : memref<8xf32>
      memref.store %14, %4[%arg1, %arg2, %arg3, %arg4] : memref<1x8x3x3xf32>
      scf.yield
    }
    %5 = memref.alloca() : memref<1x8x3x3xf32>
    memref.copy %4, %5 : memref<1x8x3x3xf32> to memref<1x8x3x3xf32>
    scf.parallel (%arg1, %arg2, %arg3, %arg4) = (%c0, %c0, %c0, %c0) to (%c1, %c8, %c3, %c3) step (%c1, %c1, %c1, %c1) {
      scf.for %arg5 = %c0 to %c2 step %c1 {
        scf.for %arg6 = %c0 to %c3 step %c1 {
          scf.for %arg7 = %c0 to %c3 step %c1 {
            %14 = affine.apply #map(%arg3, %arg6)
            %15 = affine.apply #map(%arg4, %arg7)
            %16 = memref.load %arg0[%arg1, %arg5, %14, %15] : memref<1x2x5x5xf32>
            %17 = memref.load %3[%arg2, %arg5, %arg6, %arg7] : memref<8x2x3x3xf32>
            %18 = memref.load %5[%arg1, %arg2, %arg3, %arg4] : memref<1x8x3x3xf32>
            %19 = arith.mulf %16, %17 : f32
            %20 = arith.addf %18, %19 : f32
            memref.store %20, %5[%arg1, %arg2, %arg3, %arg4] : memref<1x8x3x3xf32>
          }
        }
      }
      scf.yield
    }
    %6 = memref.alloca() : memref<1x2x1x1xf32>
    scf.parallel (%arg1, %arg2, %arg3, %arg4) = (%c0, %c0, %c0, %c0) to (%c1, %c2, %c1, %c1) step (%c1, %c1, %c1, %c1) {
      %14 = memref.load %0[%arg2] : memref<2xf32>
      memref.store %14, %6[%arg1, %arg2, %arg3, %arg4] : memref<1x2x1x1xf32>
      scf.yield
    }
    %7 = memref.alloca() : memref<1x2x1x1xf32>
    memref.copy %6, %7 : memref<1x2x1x1xf32> to memref<1x2x1x1xf32>
    scf.parallel (%arg1, %arg2, %arg3, %arg4) = (%c0, %c0, %c0, %c0) to (%c1, %c2, %c1, %c1) step (%c1, %c1, %c1, %c1) {
      scf.for %arg5 = %c0 to %c8 step %c1 {
        scf.for %arg6 = %c0 to %c3 step %c1 {
          scf.for %arg7 = %c0 to %c3 step %c1 {
            %14 = affine.apply #map(%arg3, %arg6)
            %15 = affine.apply #map(%arg4, %arg7)
            %16 = memref.load %5[%arg1, %arg5, %14, %15] : memref<1x8x3x3xf32>
            %17 = memref.load %1[%arg2, %arg5, %arg6, %arg7] : memref<2x8x3x3xf32>
            %18 = memref.load %7[%arg1, %arg2, %arg3, %arg4] : memref<1x2x1x1xf32>
            %19 = arith.mulf %16, %17 : f32
            %20 = arith.addf %18, %19 : f32
            memref.store %20, %7[%arg1, %arg2, %arg3, %arg4] : memref<1x2x1x1xf32>
          }
        }
      }
      scf.yield
    }
    %8 = memref.alloca() : memref<f32>
    memref.store %cst, %8[] : memref<f32>
    %9 = memref.alloca() : memref<f32>
    memref.copy %8, %9 : memref<f32> to memref<f32>
    scf.for %arg1 = %c0 to %c1 step %c1 {
      scf.for %arg2 = %c0 to %c2 step %c1 {
        scf.for %arg3 = %c0 to %c1 step %c1 {
          scf.for %arg4 = %c0 to %c1 step %c1 {
            %14 = memref.load %7[%arg1, %arg2, %arg3, %arg4] : memref<1x2x1x1xf32>
            %15 = memref.load %9[] : memref<f32>
            %16 = arith.addf %14, %15 : f32
            memref.store %16, %9[] : memref<f32>
          }
        }
      }
    }
    %10 = memref.alloc() {alignment = 128 : i64} : memref<f32>
    %11 = memref.load %9[] : memref<f32>
    %12 = arith.cmpf ugt, %11, %cst : f32
    %13 = arith.select %12, %11, %cst : f32
    memref.store %13, %10[] : memref<f32>
    return %10 : memref<f32>
  }
}
