#map = affine_map<(d0, d1) -> (d0 + d1)>
module attributes {torch.debug_module_name = "DoubleCNN"} {
  memref.global "private" constant @__constant_16x1x3x3xf32 : memref<16x1x3x3xf32> = dense<"…">
  memref.global "private" constant @__constant_16xf32_0 : memref<16xf32> = dense<[… >
  memref.global "private" constant @__constant_8x16x1x1xf32_1 : memref<8x16x1x1xf32> = dense<"…">
  memref.global "private" constant @__constant_8xf32_1 : memref<8xf32> = dense<[0.0611416101, 0.228176326, -0.00933715701, 0.165543854, 0.175165057, 0.188539684, 0.0448108315, -0.0385988951]>
  memref.global "private" constant @__constant_8x16x1x1xf32_0 : memref<8x16x1x1xf32> = dense<"…">
  memref.global "private" constant @__constant_8xf32_0 : memref<8xf32> = dense<[0.0849818885, -0.184861422, -0.0475964546, 0.13199231, -0.0422819853, -0.232527137, -0.0634448528, -0.130168229]>
  memref.global "private" constant @__constant_8x16x1x1xf32 : memref<8x16x1x1xf32> = dense<"…">
  memref.global "private" constant @__constant_8xf32 : memref<8xf32> = dense<[-0.0841903984, 0.111509383, 1.986570e-01, -0.232849449, 0.0660006404, -0.224090964, -0.199056953, 0.19479087]>
  memref.global "private" constant @__constant_16x8x1x1xf32 : memref<16x8x1x1xf32> = dense<"…">
  memref.global "private" constant @__constant_16xf32 : memref<16xf32> = dense<[… >
  func.func @forward(%arg0: memref<1x1x5x5xf32>) -> memref<f32> {
    %c16 = arith.constant 16 : index
    %c1 = arith.constant 1 : index
    %c3 = arith.constant 3 : index
    %c0 = arith.constant 0 : index
    %c8 = arith.constant 8 : index
    %cst = arith.constant 0.000000e+00 : f32
    %0 = memref.get_global @__constant_16xf32 : memref<16xf32>
    %1 = memref.get_global @__constant_16x8x1x1xf32 : memref<16x8x1x1xf32>
    %2 = memref.get_global @__constant_8xf32 : memref<8xf32>
    %3 = memref.get_global @__constant_8x16x1x1xf32 : memref<8x16x1x1xf32>
    %4 = memref.get_global @__constant_8xf32_0 : memref<8xf32>
    %5 = memref.get_global @__constant_8x16x1x1xf32_0 : memref<8x16x1x1xf32>
    %6 = memref.get_global @__constant_8xf32_1 : memref<8xf32>
    %7 = memref.get_global @__constant_8x16x1x1xf32_1 : memref<8x16x1x1xf32>
    %8 = memref.get_global @__constant_16xf32_0 : memref<16xf32>
    %9 = memref.get_global @__constant_16x1x3x3xf32 : memref<16x1x3x3xf32>
    %10 = memref.alloca() : memref<1x16x3x3xf32>
    scf.parallel (%arg1, %arg2, %arg3, %arg4) = (%c0, %c0, %c0, %c0) to (%c1, %c16, %c3, %c3) step (%c1, %c1, %c1, %c1) {
      %24 = memref.load %8[%arg2] : memref<16xf32>
      memref.store %24, %10[%arg1, %arg2, %arg3, %arg4] : memref<1x16x3x3xf32>
      scf.yield
    }
    %11 = memref.alloca() : memref<1x16x3x3xf32>
    memref.copy %10, %11 : memref<1x16x3x3xf32> to memref<1x16x3x3xf32>
    scf.parallel (%arg1, %arg2, %arg3, %arg4) = (%c0, %c0, %c0, %c0) to (%c1, %c16, %c3, %c3) step (%c1, %c1, %c1, %c1) {
      scf.for %arg5 = %c0 to %c1 step %c1 {
        scf.for %arg6 = %c0 to %c3 step %c1 {
          scf.for %arg7 = %c0 to %c3 step %c1 {
            %24 = affine.apply #map(%arg3, %arg6)
            %25 = affine.apply #map(%arg4, %arg7)
            %26 = memref.load %arg0[%arg1, %arg5, %24, %25] : memref<1x1x5x5xf32>
            %27 = memref.load %9[%arg2, %arg5, %arg6, %arg7] : memref<16x1x3x3xf32>
            %28 = memref.load %11[%arg1, %arg2, %arg3, %arg4] : memref<1x16x3x3xf32>
            %29 = arith.mulf %26, %27 : f32
            %30 = arith.addf %28, %29 : f32
            memref.store %30, %11[%arg1, %arg2, %arg3, %arg4] : memref<1x16x3x3xf32>
          }
        }
      }
      scf.yield
    }
    %12 = memref.alloca() : memref<1x8x3x3xf32>
    scf.parallel (%arg1, %arg2, %arg3, %arg4) = (%c0, %c0, %c0, %c0) to (%c1, %c8, %c3, %c3) step (%c1, %c1, %c1, %c1) {
      %24 = memref.load %6[%arg2] : memref<8xf32>
      memref.store %24, %12[%arg1, %arg2, %arg3, %arg4] : memref<1x8x3x3xf32>
      scf.yield
    }
    %13 = memref.alloca() : memref<1x8x3x3xf32>
    memref.copy %12, %13 : memref<1x8x3x3xf32> to memref<1x8x3x3xf32>
    scf.parallel (%arg1, %arg2, %arg3, %arg4) = (%c0, %c0, %c0, %c0) to (%c1, %c8, %c3, %c3) step (%c1, %c1, %c1, %c1) {
      scf.for %arg5 = %c0 to %c16 step %c1 {
        scf.for %arg6 = %c0 to %c1 step %c1 {
          scf.for %arg7 = %c0 to %c1 step %c1 {
            %24 = affine.apply #map(%arg3, %arg6)
            %25 = affine.apply #map(%arg4, %arg7)
            %26 = memref.load %11[%arg1, %arg5, %24, %25] : memref<1x16x3x3xf32>
            %27 = memref.load %7[%arg2, %arg5, %arg6, %arg7] : memref<8x16x1x1xf32>
            %28 = memref.load %13[%arg1, %arg2, %arg3, %arg4] : memref<1x8x3x3xf32>
            %29 = arith.mulf %26, %27 : f32
            %30 = arith.addf %28, %29 : f32
            memref.store %30, %13[%arg1, %arg2, %arg3, %arg4] : memref<1x8x3x3xf32>
          }
        }
      }
      scf.yield
    }
    %14 = memref.alloca() : memref<1x8x3x3xf32>
    scf.parallel (%arg1, %arg2, %arg3, %arg4) = (%c0, %c0, %c0, %c0) to (%c1, %c8, %c3, %c3) step (%c1, %c1, %c1, %c1) {
      %24 = memref.load %4[%arg2] : memref<8xf32>
      memref.store %24, %14[%arg1, %arg2, %arg3, %arg4] : memref<1x8x3x3xf32>
      scf.yield
    }
    %15 = memref.alloca() : memref<1x8x3x3xf32>
    memref.copy %14, %15 : memref<1x8x3x3xf32> to memref<1x8x3x3xf32>
    scf.parallel (%arg1, %arg2, %arg3, %arg4) = (%c0, %c0, %c0, %c0) to (%c1, %c8, %c3, %c3) step (%c1, %c1, %c1, %c1) {
      scf.for %arg5 = %c0 to %c16 step %c1 {
        scf.for %arg6 = %c0 to %c1 step %c1 {
          scf.for %arg7 = %c0 to %c1 step %c1 {
            %24 = affine.apply #map(%arg3, %arg6)
            %25 = affine.apply #map(%arg4, %arg7)
            %26 = memref.load %11[%arg1, %arg5, %24, %25] : memref<1x16x3x3xf32>
            %27 = memref.load %5[%arg2, %arg5, %arg6, %arg7] : memref<8x16x1x1xf32>
            %28 = memref.load %15[%arg1, %arg2, %arg3, %arg4] : memref<1x8x3x3xf32>
            %29 = arith.mulf %26, %27 : f32
            %30 = arith.addf %28, %29 : f32
            memref.store %30, %15[%arg1, %arg2, %arg3, %arg4] : memref<1x8x3x3xf32>
          }
        }
      }
      scf.yield
    }
    %16 = memref.alloca() : memref<1x8x3x3xf32>
    scf.parallel (%arg1, %arg2, %arg3, %arg4) = (%c0, %c0, %c0, %c0) to (%c1, %c8, %c3, %c3) step (%c1, %c1, %c1, %c1) {
      %24 = memref.load %2[%arg2] : memref<8xf32>
      memref.store %24, %16[%arg1, %arg2, %arg3, %arg4] : memref<1x8x3x3xf32>
      scf.yield
    }
    %17 = memref.alloca() : memref<1x8x3x3xf32>
    memref.copy %16, %17 : memref<1x8x3x3xf32> to memref<1x8x3x3xf32>
    scf.parallel (%arg1, %arg2, %arg3, %arg4) = (%c0, %c0, %c0, %c0) to (%c1, %c8, %c3, %c3) step (%c1, %c1, %c1, %c1) {
      scf.for %arg5 = %c0 to %c16 step %c1 {
        scf.for %arg6 = %c0 to %c1 step %c1 {
          scf.for %arg7 = %c0 to %c1 step %c1 {
            %24 = affine.apply #map(%arg3, %arg6)
            %25 = affine.apply #map(%arg4, %arg7)
            %26 = memref.load %11[%arg1, %arg5, %24, %25] : memref<1x16x3x3xf32>
            %27 = memref.load %3[%arg2, %arg5, %arg6, %arg7] : memref<8x16x1x1xf32>
            %28 = memref.load %17[%arg1, %arg2, %arg3, %arg4] : memref<1x8x3x3xf32>
            %29 = arith.mulf %26, %27 : f32
            %30 = arith.addf %28, %29 : f32
            memref.store %30, %17[%arg1, %arg2, %arg3, %arg4] : memref<1x8x3x3xf32>
          }
        }
      }
      scf.yield
    }
    %18 = memref.alloca() : memref<1x8x3x3xf32>
    scf.parallel (%arg1, %arg2, %arg3, %arg4) = (%c0, %c0, %c0, %c0) to (%c1, %c8, %c3, %c3) step (%c1, %c1, %c1, %c1) {
      %24 = memref.load %13[%c0, %arg2, %arg3, %arg4] : memref<1x8x3x3xf32>
      %25 = memref.load %15[%c0, %arg2, %arg3, %arg4] : memref<1x8x3x3xf32>
      %26 = arith.addf %24, %25 : f32
      memref.store %26, %18[%arg1, %arg2, %arg3, %arg4] : memref<1x8x3x3xf32>
      scf.yield
    }
    %19 = memref.alloca() : memref<1x8x3x3xf32>
    scf.parallel (%arg1, %arg2, %arg3, %arg4) = (%c0, %c0, %c0, %c0) to (%c1, %c8, %c3, %c3) step (%c1, %c1, %c1, %c1) {
      %24 = memref.load %18[%c0, %arg2, %arg3, %arg4] : memref<1x8x3x3xf32>
      %25 = memref.load %17[%c0, %arg2, %arg3, %arg4] : memref<1x8x3x3xf32>
      %26 = arith.addf %24, %25 : f32
      memref.store %26, %19[%arg1, %arg2, %arg3, %arg4] : memref<1x8x3x3xf32>
      scf.yield
    }
    %20 = memref.alloca() : memref<1x16x3x3xf32>
    scf.parallel (%arg1, %arg2, %arg3, %arg4) = (%c0, %c0, %c0, %c0) to (%c1, %c16, %c3, %c3) step (%c1, %c1, %c1, %c1) {
      %24 = memref.load %0[%arg2] : memref<16xf32>
      memref.store %24, %20[%arg1, %arg2, %arg3, %arg4] : memref<1x16x3x3xf32>
      scf.yield
    }
    %21 = memref.alloca() : memref<1x16x3x3xf32>
    memref.copy %20, %21 : memref<1x16x3x3xf32> to memref<1x16x3x3xf32>
    scf.parallel (%arg1, %arg2, %arg3, %arg4) = (%c0, %c0, %c0, %c0) to (%c1, %c16, %c3, %c3) step (%c1, %c1, %c1, %c1) {
      scf.for %arg5 = %c0 to %c8 step %c1 {
        scf.for %arg6 = %c0 to %c1 step %c1 {
          scf.for %arg7 = %c0 to %c1 step %c1 {
            %24 = affine.apply #map(%arg3, %arg6)
            %25 = affine.apply #map(%arg4, %arg7)
            %26 = memref.load %19[%arg1, %arg5, %24, %25] : memref<1x8x3x3xf32>
            %27 = memref.load %1[%arg2, %arg5, %arg6, %arg7] : memref<16x8x1x1xf32>
            %28 = memref.load %21[%arg1, %arg2, %arg3, %arg4] : memref<1x16x3x3xf32>
            %29 = arith.mulf %26, %27 : f32
            %30 = arith.addf %28, %29 : f32
            memref.store %30, %21[%arg1, %arg2, %arg3, %arg4] : memref<1x16x3x3xf32>
          }
        }
      }
      scf.yield
    }
    %22 = memref.alloca() : memref<f32>
    memref.store %cst, %22[] : memref<f32>
    %23 = memref.alloc() {alignment = 128 : i64} : memref<f32>
    memref.copy %22, %23 : memref<f32> to memref<f32>
    scf.for %arg1 = %c0 to %c1 step %c1 {
      scf.for %arg2 = %c0 to %c16 step %c1 {
        scf.for %arg3 = %c0 to %c3 step %c1 {
          scf.for %arg4 = %c0 to %c3 step %c1 {
            %24 = memref.load %21[%arg1, %arg2, %arg3, %arg4] : memref<1x16x3x3xf32>
            %25 = memref.load %23[] : memref<f32>
            %26 = arith.addf %24, %25 : f32
            memref.store %26, %23[] : memref<f32>
          }
        }
      }
    }
    return %23 : memref<f32>
  }
}
